rae.pth (torch, 10823 bytes, 4 tensors)

weight f4 [3, 20]
0	0x3e2f0f18	0.17095602
1	0x3e3e0cba	0.18559542
2	0xbd569190	-0.052384913
3	0x3e525668	0.20540774
4	0x3f258565	0.6465667
5	0x3d389991	0.045068327
6	0xbddef423	-0.10886409
7	0x3f21a4f8	0.6314235
8	0x3e50da93	0.2039588
9	0xbe27fb36	-0.16404423
10	0x3f6458ec	0.89198184
11	0x3d2b6b00	0.04185009
12	0x3e292ae4	0.16520268
13	0x3cf81470	0.030283183
14	0x3ddcd104	0.10782054
15	0xbd0150e0	-0.03157127
16	0x3e308328	0.17237532
17	0x3d076090	0.033051074
18	0xbdd5c9ad	-0.10438857
19	0x3d6975b0	0.056997
20	0xbdd2fe2a	-0.10302384
21	0xbcd6d1a0	-0.026223004
22	0xbdb9ffb6	-0.09081976
23	0x3e17e4f0	0.14833426
24	0xbe30921f	-0.17243241
25	0xbdd31d1e	-0.10308288
26	0xbd815006	-0.063140914
27	0xbe06481e	-0.13113448
28	0x3cadd17e	0.021218058
29	0xbe6226f7	-0.22085176
30	0x3e530498	0.20607221
31	0xbe42816e	-0.18994686
32	0x3e30c612	0.17263058
33	0x3d186c18	0.03721246
34	0xbd94b286	-0.07260613
35	0x3e0d7e7c	0.13817781
36	0x3d0ebe20	0.034849286
37	0x3e390088	0.18066609
38	0x3cc84018	0.024444625
39	0xbd906c92	-0.07051958
40	0x3d7615e8	0.060079485
41	0xbd785f18	-0.060637563
42	0x3dc0baf8	0.094106615
43	0x3e4c6eb8	0.19964111
44	0x3f67c005	0.90527374
45	0xbdc83dff	-0.0977745
46	0x3e042da0	0.1290803
47	0x3f1404e5	0.5781997
48	0x3dfc5903	0.12321665
49	0xbe0b8f78	-0.13628948
50	0x3f0b0e7d	0.5431898
51	0xbdb0eeba	-0.086392835
52	0xbe2fa0b7	-0.17151152
53	0x3e3be1ac	0.18347806
54	0x3d83e72c	0.06440577
55	0x3dbdb010	0.09262097
56	0x3d90d4ac	0.07071814
57	0xbb7eed00	-0.0038898587
58	0x3e33324a	0.17499653
59	0xbe22b04e	-0.15887567

bias f4 [3]
0	0x3f891921	1.0710794
1	0xbe155e3f	-0.14586733
2	0x3f9b0a92	1.2112601

weight f4 [20, 3]
0	0xbef13939	-0.4711397
1	0x3e35b96b	0.17746513
2	0xbebefa1a	-0.37300187
3	0x3d798921	0.060921792
4	0xbeaed106	-0.34143847
5	0xbf3cd1f9	-0.7375789
6	0xbf2deac6	-0.6793636
7	0x3f0514b7	0.51984733
8	0xbdf86730	-0.121290565
9	0x3e1dd6d4	0.15413982
10	0xbef3903c	-0.4757098
11	0xbf724bab	-0.9464671
12	0xbe1cd742	-0.1531649
13	0xbec7256c	-0.38895738
14	0x3f017f71	0.50585085
15	0xbe98b72e	-0.29827255
16	0x3ef6245b	0.48074612
17	0xbf43ffac	-0.76562
18	0xbf208eea	-0.6271807
19	0x3e9d199b	0.30683598
20	0xbee3c6a9	-0.44487503
21	0xbdbc2360	-0.09186435
22	0xbe0bb180	-0.1364193
23	0xbddb851f	-0.1071875
24	0xbf54b7d6	-0.8309301
25	0xbe94c718	-0.29058146
26	0xbe34b633	-0.17647628
27	0xbecee97a	-0.40412503
28	0xbe15c7f8	-0.14627063
29	0xbe2176ec	-0.15768021
30	0x3eca08d1	0.3945985
31	0xbed6615b	-0.4187115
32	0xbea3effd	-0.32019034
33	0xbb317a4d	-0.0027080954
34	0xbe46752b	-0.19380634
35	0xbf348244	-0.7051127
36	0xbf554efb	-0.8332364
37	0xbea9009a	-0.3300827
38	0xbddfb252	-0.10922684
39	0xbed400b9	-0.414068
40	0xbed643e8	-0.41848683
41	0xbe9bcd5d	-0.30430117
42	0xbf0a1946	-0.53944814
43	0xbefaa2e6	-0.48952407
44	0xbee5f8d2	-0.44916397
45	0xbf81aeda	-1.0131485
46	0xbebbba43	-0.36665544
47	0x3dcfb371	0.101416476
48	0xbe341ac9	-0.17588343
49	0x3e36d378	0.17854106
50	0xbf4c7f96	-0.7988218
51	0xbf45a849	-0.7720991
52	0xbe43ec50	-0.19133115
53	0xbe8b2c0a	-0.27182037
54	0xbf23bb9a	-0.6395813
55	0xbe7e6944	-0.24844843
56	0xbeecf502	-0.46280676
57	0xbf036448	-0.5132489
58	0xbe5ae877	-0.21377741
59	0xbf04a1b7	-0.5180926

bias f4 [20]
0	0xbf2e81dd	-0.68166906
1	0xbf4dfad1	-0.8046084
2	0xbf2d5eb2	-0.6772262
3	0xbf1ceac7	-0.6129574
4	0xbe25e5aa	-0.16200891
5	0xbd62da2c	-0.055383846
6	0xbecae2f9	-0.3962629
7	0x3e330d58	0.17485559
8	0xbe72fdd1	-0.23729636
9	0xbf76a1f2	-0.9634086
10	0x3ed46a3c	0.414873
11	0xbf2c84c4	-0.67390084
12	0xbf061142	-0.52370083
13	0xbf50065f	-0.8125972
14	0xbf401b61	-0.75041777
15	0xbeb1b4a9	-0.34708145
16	0xbee803e3	-0.45315465
17	0xbe550ae3	-0.20804934
18	0xbf253228	-0.6452966
19	0xbde78617	-0.113048725
