wae.pth (torch, 38087 bytes, 4 tensors)

weight f4 [3, 20]
0	0xbca61fe0	-0.020278871
1	0xbd893ad6	-0.06700675
2	0x3dbd59a8	0.09245616
3	0x3cc1e870	0.023670405
4	0x3d08a76b	0.033362787
5	0xbe4db128	-0.20087111
6	0x3e5a4148	0.21313965
7	0xbde2730b	-0.11057099
8	0x3c0401ac	0.008057039
9	0xbe5db606	-0.21651468
10	0xbd283dbc	-0.0410745
11	0xbda223ba	-0.079169706
12	0xbdcbcf6e	-0.099516734
13	0x3e163542	0.14668754
14	0xbd871638	-0.06596035
15	0x3e554068	0.2082535
16	0x3e316ada	0.17325917
17	0xbdb5c3b2	-0.088752165
18	0x3e60488a	0.21902671
19	0xbe150a50	-0.14554715
20	0xbdfd95fc	-0.12382123
21	0xbcd7d540	-0.026346803
22	0x3dc831f8	0.09775156
23	0xbdc94dd8	-0.09829301
24	0x3f5d7c70	0.86518
25	0x3d13e699	0.036108587
26	0xbde97934	-0.11400071
27	0x3eea68ca	0.45783073
28	0xbdd5edb5	-0.1044573
29	0x3e2cad36	0.1686295
30	0x3f79bf3a	0.97557414
31	0xbc5a3670	-0.013318643
32	0xbe09c114	-0.1345256
33	0xbe254002	-0.16137698
34	0xbe40e50d	-0.18837376
35	0xbd097d94	-0.033567026
36	0x3e034e6a	0.12822881
37	0xbe019a34	-0.1265648
38	0x3cab62b0	0.020921081
39	0xbe51d846	-0.20492658
40	0xbd62ed20	-0.05540192
41	0x3e09d802	0.13461307
42	0xbe216827	-0.15762387
43	0xbe447995	-0.19187005
44	0x3f15cd0e	0.58516014
45	0x3dbef4b4	0.09324017
46	0xbe138f3b	-0.14410107
47	0x3ec5eb93	0.3865629
48	0xbccd4300	-0.025056362
49	0xbe2118bd	-0.15732093
50	0x3ee45247	0.44594023
51	0xbe32216c	-0.17395562
52	0xbe31ad37	-0.17351232
53	0xbdf6449f	-0.12024807
54	0x3dc93694	0.09824863
55	0xbd78b26c	-0.06071703
56	0xb9a85600	-0.00032107532
57	0x3e0e6176	0.13904366
58	0x3d3fd070	0.04682964
59	0x3c7d9890	0.015478268

bias f4 [3]
0	0xbe23867c	-0.1596927
1	0x3fdc6360	1.7217827
2	0x3f60da7e	0.8783339

weight f4 [20, 3]
0	0xbdbe82ec	-0.09302315
1	0xbea0d01a	-0.3140877
2	0xbf05be6f	-0.52243704
3	0x3eccab6f	0.39974543
4	0xbf3a8330	-0.72856426
5	0x3deb9f95	0.11505047
6	0xbec8d4c3	-0.39224824
7	0xbed69497	-0.4191024
8	0xbf43c5cb	-0.76473683
9	0x3e216ed6	0.15764937
10	0xbf5b6a31	-0.8570891
11	0xbe6bd7a0	-0.23031473
12	0xbea629db	-0.32453808
13	0x3e25f870	0.16208053
14	0x3e6a3b3e	0.22874162
15	0x3eeb4229	0.45948914
16	0xbef871b9	-0.48524264
17	0xbf470dcf	-0.77755445
18	0xbe3436d3	-0.17599039
19	0xbf220201	-0.6328431
20	0x3decd0c9	0.1156326
21	0xbe9539e9	-0.29145744
22	0xbec4667d	-0.38359442
23	0xbcb36119	-0.021896886
24	0x3e96d4c3	0.294592
25	0xbeed7d8e	-0.46384853
26	0xbf2c4423	-0.6729147
27	0x3da50b62	0.08058812
28	0xbf0fb2a8	-0.5613198
29	0xbed04ec4	-0.40685093
30	0x3e569b42	0.20957664
31	0x3deab260	0.114598036
32	0x3e7f69b0	0.2494266
33	0xbecea6b6	-0.40361565
34	0xbf01ced3	-0.50706214
35	0xbe29a7dd	-0.16567941
36	0x3c4f898f	0.012667074
37	0xbe7efb56	-0.24900565
38	0xbf471670	-0.7776861
39	0xbe89c343	-0.26906785
40	0xbf4f82f3	-0.8105919
41	0x3e0bad96	0.13640437
42	0xbee47de9	-0.44627312
43	0xbf365148	-0.71217775
44	0xbee4cbe8	-0.44686818
45	0x3e0fc821	0.14041187
46	0xbf684fcc	-0.9074676
47	0x3d38a525	0.04507937
48	0xbee6e03d	-0.45092955
49	0xbf0ef3b2	-0.558406
50	0xbead9675	-0.33903852
51	0xbe82cd28	-0.25547147
52	0xbf652451	-0.8950854
53	0x3ba41f7f	0.0050086374
54	0x3df001f3	0.11719122
55	0xbf114048	-0.5673871
56	0xbf2b5d93	-0.6693966
57	0x3e0a4e8b	0.13506524
58	0xbf06ec13	-0.5270397
59	0xbf2859ba	-0.6576191

bias f4 [20]
0	0xbf730e74	-0.9494393
1	0xbf540799	-0.82824093
2	0xbf0a7bb9	-0.54095036
3	0xbe50873c	-0.20364088
4	0x3b584169	0.0032997972
5	0xbeb1cbf4	-0.34725916
6	0xbf856fe7	-1.0424775
7	0x3d601902	0.05471135
8	0xbf427716	-0.7596296
9	0xbee220d1	-0.44165662
10	0xbdab1764	-0.08354071
11	0xbf5c447c	-0.86042
12	0xbf3ba942	-0.7330514
13	0xbf1e8ddc	-0.6193521
14	0xbee204d2	-0.44144303
15	0xbee9820f	-0.4560704
16	0xbeef0202	-0.4668122
17	0xbf074fca	-0.52856123
18	0xbf27a53a	-0.6548649
19	0xbf06ce6c	-0.52658725
